…
        step=[50]),
    warmup=dict(
        type='iter',
        policy='linear',
        steps=500,
        ratio=0.001),
    grad_clip=dict(
        max_norm=35,
        norm_type=2),
    validation=dict(
        interval=1,
        nms_cfg=dict(type='linear')))
hooks = dict(
    type='EvalHook',
    high_keys=['MR-full-mAP', 'MR-full-mIoU', 'HL-min-VeryGood-mAP', 'MR-full-R1@0.3', 'MR-full-R1@0.5', 'MR-full-R1@0.7', 'mAP'])
[2024-10-04 15:18:07 INFO]: Using random seed: 64246273
[2024-10-04 15:18:07 INFO]: Model architecture:
R2Tuning(
  (adapter): R2Block(
    (video_map): Sequential(
      (0): LayerNorm((770,), eps=1e-05, elementwise_affine=True)
      (1): Dropout(p=0.5, inplace=False)
      (2): Linear(in_features=770, out_features=256, bias=True)
      (3): ReLU(inplace=True)
      (4): LayerNorm((256,), eps=1e-05, elementwise_affine=True)
      (5): Dropout(p=0.5, inplace=False)
      (6): Linear(in_features=256, out_features=256, bias=True)
    )
    (query_map): Sequential(
      (0): LayerNorm((512,), eps=1e-05, elementwise_affine=True)
      (1): Dropout(p=0.5, inplace=False)
      (2): Linear(in_features=512, out_features=256, bias=True)
      (3): ReLU(inplace=True)
      (4): LayerNorm((256,), eps=1e-05, elementwise_affine=True)
      (5): Dropout(p=0.5, inplace=False)
      (6): Linear(in_features=256, out_features=256, bias=True)
    )
    (v_map): Linear(in_features=256, out_features=256, bias=True)
    (q_map): Linear(in_features=256, out_features=256, bias=True)
    (pos): PositionalEncoding(dims=256, temperature=10000, normalize=True, scale=6.283185307179586, offset=0.0)
    (tem): TransformerDecoderLayer(
      (cross_att): MultiHeadAttention(q_dims=256, k_dims=256, v_dims=256, h_dims=256, o_dims=256, heads=8, att_dropout=0.0, out_dropout=0.0, bias=True)
      (cross_att_norm): LayerNorm((256,), eps=1e-05, elementwise_affine=True)
      (self_att): MultiHeadAttention(q_dims=256, k_dims=256, v_dims=256, h_dims=256, o_dims=256, heads=8, att_dropout=0.0, out_dropout=0.0, bias=True)
      (self_att_norm): LayerNorm((256,), eps=1e-05, elementwise_affine=True)
      (ffn): FeedForwardNetwork(dims=256, ratio=4, ffn_dropout=0.0, out_dropout=0.0)
      (ffn_norm): LayerNorm((256,), eps=1e-05, elementwise_affine=True)
      (droppath): DropPath(p=0.1)
    )
  )
  (motion_block): MotionBlock()
  (pyramid): ConvPyramid(
    (blocks): ModuleList(
      (0): ReLU(inplace=True)
      (1): Sequential(
        (0): Permute()
        (1): Conv1d(256, 256, kernel_size=(2,), stride=(2,))
        (2): Permute()
        (3): LayerNorm((256,), eps=1e-05, elementwise_affine=True)
        (4): ReLU(inplace=True)
      )
      (2): Sequential(
        (0): Permute()
        (1): Conv1d(256, 256, kernel_size=(2,), stride=(2,))
        (2): Permute()
        (3): LayerNorm((256,), eps=1e-05, elementwise_affine=True)
        (4): ReLU(inplace=True)
        (5): Permute()
        (6): Conv1d(256, 256, kernel_size=(2,), stride=(2,))
        (7): Permute()
        (8): LayerNorm((256,), eps=1e-05, elementwise_affine=True)
        (9): ReLU(inplace=True)
      )
      (3): Sequential(
        (0): Permute()
        (1): Conv1d(256, 256, kernel_size=(2,), stride=(2,))
        (2): Permute()
        (3): LayerNorm((256,), eps=1e-05, elementwise_affine=True)
        (4): ReLU(inplace=True)
        (5): Permute()
        (6): Conv1d(256, 256, kernel_size=(2,), stride=(2,))
        (7): Permute()
        (8): LayerNorm((256,), eps=1e-05, elementwise_affine=True)
        (9): ReLU(inplace=True)
        (10): Permute()
        (11): Conv1d(256, 256, kernel_size=(2,), stride=(2,))
        (12): Permute()
        (13): LayerNorm((256,), eps=1e-05, elementwise_affine=True)
        (14): ReLU(inplace=True)
      )
    )
  )
  (pooling): AdaPooling(
    (att): Linear(in_features=256, out_features=1, bias=False)
  )
  (class_head): ConvHead(
    (module): Sequential(
      (0): Permute()
      (1): Conv1d(256, 256, kernel_size=(3,), stride=(1,), padding=(1,))
      (2): ReLU(inplace=True)
      (3): Conv1d(256, 1, kernel_size=(3,), stride=(1,), padding=(1,))
      (4): Permute()
    )
  )
  (coord_head): ConvHead(
    (module): Sequential(
      (0): Permute()
      (1): Conv1d(256, 256, kernel_size=(3,), stride=(1,), padding=(1,))
      (2): ReLU(inplace=True)
      (3): Conv1d(256, 2, kernel_size=(3,), stride=(1,), padding=(1,))
      (4): Permute()
    )
  )
  (generator): PointGenerator(
    (buffer): BufferList()
  )
  (loss): BundleLoss(
    (_loss_cls): FocalLoss(alpha=-1, gamma=2.0, reduction='mean', loss_weight=1.0)
    (_loss_reg): L1Loss(reduction='mean', loss_weight=0.2)
    (_loss_sal): SampledNCELoss(temperature=0.07, max_scale=100, learnable=False, direction=('row', 'col'), loss_weight=0.05)
…
