…
        lr=0.0005,
        weight_decay=0.0001),
    lr_schedule=None,
    warmup=dict(
        type='iter',
        policy='linear',
        steps=50,
        ratio=0.001),
    grad_clip=dict(
        max_norm=35,
        norm_type=2),
    validation=dict(interval=1))
hooks = dict(
    type='EvalHook',
    high_keys=['MR-full-mAP', 'MR-full-mIoU', 'HL-min-VeryGood-mAP', 'MR-full-R1@0.3', 'MR-full-R1@0.5', 'MR-full-R1@0.7', 'mAP'])
[2024-11-14 16:33:00 INFO]: Using random seed: 19408113
[2024-11-14 16:33:00 INFO]: Model architecture:
R2Tuning(
  (adapter): R2Block(
    (video_map): Sequential(
      (0): LayerNorm((768,), eps=1e-05, elementwise_affine=True)
      (1): Dropout(p=0.5, inplace=False)
      (2): Linear(in_features=768, out_features=256, bias=True)
      (3): ReLU(inplace=True)
      (4): LayerNorm((256,), eps=1e-05, elementwise_affine=True)
      (5): Dropout(p=0.5, inplace=False)
      (6): Linear(in_features=256, out_features=256, bias=True)
    )
    (query_map): Sequential(
      (0): LayerNorm((512,), eps=1e-05, elementwise_affine=True)
      (1): Dropout(p=0.5, inplace=False)
      (2): Linear(in_features=512, out_features=256, bias=True)
      (3): ReLU(inplace=True)
      (4): LayerNorm((256,), eps=1e-05, elementwise_affine=True)
      (5): Dropout(p=0.5, inplace=False)
      (6): Linear(in_features=256, out_features=256, bias=True)
    )
    (v_map): Linear(in_features=256, out_features=256, bias=True)
    (q_map): Linear(in_features=256, out_features=256, bias=True)
    (pos): PositionalEncoding(dims=256, temperature=10000, normalize=True, scale=6.283185307179586, offset=0.0)
    (tem): TransformerDecoderLayer(
      (cross_att): MultiHeadAttention(q_dims=256, k_dims=256, v_dims=256, h_dims=256, o_dims=256, heads=8, att_dropout=0.0, out_dropout=0.0, bias=True)
      (cross_att_norm): LayerNorm((256,), eps=1e-05, elementwise_affine=True)
      (self_att): MultiHeadAttention(q_dims=256, k_dims=256, v_dims=256, h_dims=256, o_dims=256, heads=8, att_dropout=0.0, out_dropout=0.0, bias=True)
      (self_att_norm): LayerNorm((256,), eps=1e-05, elementwise_affine=True)
      (ffn): FeedForwardNetwork(dims=256, ratio=4, ffn_dropout=0.0, out_dropout=0.0)
      (ffn_norm): LayerNorm((256,), eps=1e-05, elementwise_affine=True)
      (droppath): DropPath(p=0.1)
    )
  )
  (pyramid): ConvPyramid(
    (blocks): ModuleList(
      (0): ReLU(inplace=True)
    )
  )
  (pooling): AdaPooling(
    (att): Linear(in_features=256, out_features=1, bias=False)
  )
  (class_head): ConvHead(
    (module): Sequential(
      (0): Permute()
      (1): Conv1d(256, 256, kernel_size=(3,), stride=(1,), padding=(1,))
      (2): ReLU(inplace=True)
      (3): Conv1d(256, 1, kernel_size=(3,), stride=(1,), padding=(1,))
      (4): Permute()
    )
  )
  (generator): PointGenerator(
    (buffer): BufferList()
  )
  (loss): BundleLoss(
    (_loss_cls): DynamicBCELoss(reduction='mean', pos_weight=None, loss_weight=1.0)
    (_loss_sal): SampledNCELoss(temperature=0.07, max_scale=100, learnable=False, direction=('row',), loss_weight=0.1)
    (_loss_video_cal): InfoNCELoss(temperature=0.07, max_scale=100, learnable=False, dist=False, loss_weight=0.1)
…
